helpdesk/data.pth (torch, 5015 bytes, 6 tensors)

l1.weight f4 [8, 54]
-0.09750948 -0.059749253 0.3656391 -0.26540923 -0.492338 -0.080106795 0.25355777 0.4906125
-0.00283961 0.2863024 -0.17391679 0.59152985 0.609984 0.5089681 -0.019576605 0.5239262
-0.14012477 -0.07350881 0.13782014 -0.31976002 -0.14982006 -0.3196992 -0.31973168 0.23805791
0.62117666 -0.121894486 0.40986264 -0.01902556 0.4224539 -0.13623537 -0.043458153 0.5387895
-0.060913324 0.5202939 0.070732065 0.47767234 0.430881 -0.10439538 0.5078571 0.40253097
-0.00517615 0.23155494 0.44670346 0.18939829 0.62126476 0.08246354 -0.39240405 -0.072430894
0.11505168 0.35509548 0.32227167 0.32311428 0.35870814 0.07250693 0.2738174 -0.01684286
-0.06082361 0.3461452 0.1874829 0.11259339 -0.19587281 -0.25304013 -0.33433884 -0.07030251
0.44762948 0.32465526 -0.1399491 0.384921 -0.02470557 0.4119382 0.36461458 -0.20246363
-0.14621623 0.7839446 0.3542364 0.6309064 0.604015 0.5712774 0.31158033 0.5559988
-0.20394392 0.08577652 -0.23161593 -0.062579736 0.107073285 0.38950855 0.017899457 0.01902931
0.08347114 0.5262063 -0.3197163 -0.37503576 -0.23603317 -0.23149405 -0.029654589 -0.21397963
0.23022982 -0.057169106 0.20528826 -0.062414695 -0.5148114 0.39009354 0.18007639 -0.16770492
0.28235707 -0.032676056 -0.20441605 -0.03361019 0.03153719 0.65617913 0.332211 0.3604472
0.22646825 -0.39022616 0.14761473 0.14855665 0.1492103 0.21101384 0.36866525 0.45994857
0.24888708 0.35587615 0.65795106 0.3649108 0.38397357 -0.20676811 -0.45349905 0.82854944
-0.070263624 0.5486756 0.54854417 0.63169795 0.3801568 0.40925416 -0.28145415 0.9440477
-0.16997169 0.8038262 -0.17256086 0.26295716 0.13528045 0.3428359 0.757732 0.4745288
-0.17256732 0.40334144 0.13549158 0.015852496 -0.13156934 -0.4713036 0.1783278 0.6615883
0.5656766 0.79872006 0.36235338 0.047807127 0.28382245 -0.6198595 0.31623864 -0.35608754
0.15110141 0.10907336 -0.1761466 0.35398462 -0.44458905 0.0801907 -0.16290416 0.9105629
-0.21749836 -0.12695321 -0.41285127 -0.29479733 0.33309507 -0.17125468 -0.31824222 -0.40316522
0.22807752 -0.12520689 0.1481996 0.88368124 0.27617562 0.029306212 -0.28772923 0.21765198
0.14860992 0.2652099 -0.2627677 0.27621192 0.047634356 0.19338189 0.08437689 0.35870314
0.6402528 -0.22611576 0.061095122 -0.22721761 0.3172142 0.04682502 -0.06580599 -0.41406524
-0.04633732 -0.08508963 0.6540858 0.42355767 -0.17042534 0.13429537 -0.2499141 0.3379037
-0.22277457 -0.047874764 0.27221215 0.11968665 -0.060301162 0.37250754 -0.17284828 0.20529191
0.15504627 -0.06271768 -0.48139784 0.29880208 0.27451962 0.22700043 -0.167295 -0.3390667
-0.64825326 -0.103169836 0.3235815 -0.29047012 0.350567 -0.2898838 -0.23974809 -0.08325364
0.419616 0.33824596 0.5249953 0.5983486 -0.34622324 0.50844884 0.44190404 0.19618835
-0.25594342 0.3001091 0.83380973 -0.68943 0.4692653 -0.6135579 0.14836599 -0.31419945
0.40994835 -0.47804964 -0.12749657 -0.25602868 0.49006262 -0.72990185 -0.033544987 -0.21045823
00000000: 0db3 c7bd a2bb 74bd 0c35 bb3e b8e3 87be
00000010: ba13 fcbe 080f a4bd 53d2 813e 9031 fb3e
00000020: c018 3abb 3a96 923e 3e17 32be 806e 173f
00000030: e927 1c3f bc4b 023f 1e5f a0bc 0720 063f
00000040: de7c 0fbe c98b 96bd b920 0d3e 96b7 a3be
00000050: 6e6a 19be 9daf a3be dfb3 a3be 74c5 733e
00000060: 6f05 1f3f d1a3 f9bd 84d9 d13e 7edb 9bbc
00000070: e14b d83e 4981 0bbe 2d01 32bd 1cee 093f
00000080: 4080 79bd fb31 053f f9db 903d 7891 f43e
00000090: 6f9c dc3e 3fcd d5bd ec02 023f 8a18 ce3e
000000a0: b19c a9bb bd1c 6d3e 51b6 e43e a0f1 413e
000000b0: 350b 1f3f a5e2 a83d 2fe9 c8be a656 94bd
000000c0: 37a0 eb3d 13cf b53e cb00 a53e 3c6f a53e
000000d0: 98a8 b73e 837e 943d cb31 8c3e 0afa 89bc
000000e0: 2d22 79bd f239 b13e 84fb 3f3e 5d97 e63d
000000f0: e292 48be 7a8e 81be 762e abbe c3fa 8fbd
00000100: b12f e53e 3739 a63e d14e 0fbe 5e14 c53e
00000110: 5663 cabc 90e9 d23e c3ae ba3e a052 4fbe
00000120: b5b9 15be 98b0 483f 795e b53e 1583 213f
00000130: baa0 1a3f 3c3f 123f 7587 9f3e f055 0e3f
00000140: add6 50be 9aab af3d ba2c 6dbe ce29 80bd
00000150: 3d49 db3d aa6d c73e e2a1 923c 5be3 9b3c
00000160: ebf2 aa3d 75b5 063f dbb1 a3be b004 c0be
00000170: aeb2 71be c70c 6dbe 2eee f2bc 7a1d 5bbe
00000180: 5ec1 6b3e 272a 6abd 1637 523e 8da6 7fbd
00000190: aeca 03bf 57ba c73e f265 383e d7ba 2bbe
000001a0: 1b91 903e 54d7 05bd 7152 51be d7aa 09bd
000001b0: 242d 013d 5bfb 273f 8f17 aa3e 898c b83e
000001c0: 4be7 673e b9cb c7be 5128 173e 3c1f 183e
000001d0: 96ca 183e 0314 583e b1c1 bc3e 617e eb3e
000001e0: 41dc 7e3e 6635 b63e 7b6f 283f 97d5 ba3e
000001f0: 2f98 c43e 05bb 53be 0731 e8be d11b 543f
00000200: 60e6 8fbd 0176 0c3f 646d 0c3f f5b6 213f
00000210: e9a3 c23e c389 d13e c21a 90be 1cad 713f
00000220: 0f0d 2ebe 8ec7 4d3f cbb3 30be 52a2 863e
00000230: f586 0a3e 3088 af3e b9fa 413f 70f5 f23e
00000240: 7db5 30be c582 ce3e 4ebe 0a3e 18dd 813c
00000250: 1dba 06be b54e f1be 909b 363e da5d 293f
00000260: 2fd0 103f eb78 4c3f 6286 b93e 68d1 433d
00000270: 2d51 913e 1daf 1ebf 08ea a13e 1b51 b6be
00000280: 54ba 1a3e db61 df3d c65f 34be 793d b53e
00000290: 2da1 e3be 063b a43d 59d0 26be a61a 693f
000002a0: e4b7 5ebe 0600 02be 3e61 d3be adef 96be
000002b0: 708b aa3e 635d 2fbe a5f0 a2be ac6b cebe
000002c0: 278d 693e 3c36 00be a3c1 173e ef38 623f
000002d0: e466 8d3e 9513 f03c 3f51 93be 29e0 5e3e
000002e0: 332d 183e 98c9 873e 7d89 86be a66b 8d3e
000002f0: 3e1c 433d e705 463e cacd ac3d f0a7 b73e
00000300: 9ce7 233f e48a 67be e13e 7a3d bcab 68be
00000310: e669 a23e 98cb 3f3d 4ac5 86bd 5c00 d4be
00000320: 34cc 3dbd 7943 aebd 2b72 273f 8ddc d83e
00000330: fb83 2ebe ba84 093e 7be9 7fbe b701 ad3e
00000340: 041f 64be 5418 44bd 645f 8b3e 461e f53d
00000350: 5afe 76bd 4fb9 be3e 24ff 30be 0b38 523e
00000360: 73c4 1e3e 2172 80bd c779 f6be 96fc 983e
00000370: d68d 8c3e cd72 683e 614f 2bbe 279a adbe
00000380: edf3 25bf b54a d3bd 79ac a53e 80b8 94be
00000390: 857d b33e a66b 94be 8680 75be e280 aabd
000003a0: e9d7 d63e 932e ad3e 1866 063f 602d 193f
000003b0: 2c44 b1be b429 023f 3f41 e23e 99e5 483e
000003c0: 040b 83be e6a7 993e 8e74 553f 7c7e 30bf
000003d0: 8b43 f03e 2112 1dbf 41ed 173e c0de a0be
000003e0: c0e4 d13e ecc2 f4be 768e 02be 3116 83be
000003f0: 7de9 fa3e d9da 3abf 7866 09bd 5d82 57be

l1.bias f4 [8]
0.31968108 0.55502003 0.7333997 0.78446764 0.8394545 0.41876867 0.5566637 0.6137746
00000000: 3dad a33e cb15 0e3f 15c0 3b3f dfd2 483f
00000010: 7de6 563f d968 d63e 8381 0e3f 5520 1d3f

l2.weight f4 [8, 8]
0.91524094 -0.40956205 -0.650584 -0.84358275 0.27731743 1.080637 -0.20227268 1.0601325
-0.82927287 0.2848402 1.0302382 1.1403509 0.42696878 0.18225366 0.6938284 0.0088343555
0.6061961 1.0545899 0.31918383 -0.29720363 -0.88827235 -0.6504019 0.4988324 0.018654207
-0.371833 0.026617892 -0.08439383 -0.6795528 0.69453233 1.2173465 1.3283458 0.98602194
0.77273506 0.54176337 1.2292845 -0.2894409 -0.5951799 0.5325566 -1.0238861 0.7244079
-0.27307275 -0.13319997 0.07820814 0.285829 -0.10459153 -0.12341241 -0.33194992 -0.22791441
-0.4363485 0.5861324 0.5258323 -0.3256701 0.3173277 -0.8952126 -0.751694 1.3751678
0.03316234 0.5448771 -0.4562925 1.1464411 1.5216663 -0.62345725 -0.70236045 0.6712245
00000000: 3b4d 6a3f 1eb2 d1be ac8c 26bf 0af5 57bf
00000010: 8dfc 8d3e 5052 8a3f 9220 4fbe 6cb2 873f
00000020: 3a4b 54bf 93d6 913e d8de 833f 05f7 913f
00000030: a79b da3e b4a0 3a3e bd9e 313f f9bd 103c
00000040: ab2f 1b3f cdfc 863f 106c a33e 132b 98be
00000050: d165 63bf bd80 26bf f666 ff3e b5d0 983c
00000060: e560 bebe c40d da3c acd6 acbd 2cf7 2dbf
00000070: dfcc 313f 03d2 9b3f 3c07 aa3f ef6b 7c3f
00000080: f7d1 453f 01b1 0a3f 3259 9d3f 9931 94be
00000090: b65d 18bf a155 083f b30e 83bf cc72 393f
000000a0: 31d0 8bbe 9365 08be 972b a03d 2e58 923e
000000b0: 1634 d6bd a5bf fcbd 57f5 a9be 6562 69be
000000c0: 1269 dfbe c60c 163f f29c 063f 3bbe a6be
000000d0: c778 a23e a72c 65bf 056f 40bf 8005 b03f
000000e0: 3cd5 073d 117d 0b3f 2c9f e9be 95be 923f
000000f0: f6c5 c23f e59a 1fbf e5cd 33bf 5ed5 2b3f

l2.bias f4 [8]
0.20366526 0.85488415 -0.19248822 0.21137875 0.16957873 -0.37401643 -0.05356562 0.49013135
00000000: a08d 503e b0d9 5a3f a21b 45be ac73 583e
00000010: 0ca6 2d3e 157f bfbe a067 5bbd 7ff2 fa3e

l3.weight f4 [7, 8]
-0.0018089785 -1.0771468 0.48836884 -1.196154 0.55887187 -0.055720147 0.5762566 -0.54419994
-0.68943614 0.23840861 -1.0001546 -0.41324833 0.5728266 -0.10799014 -1.2570969 -0.8635998
-0.5820213 0.5192139 -0.46914372 -1.248074 -1.5684924 0.052462734 -1.655836 1.0450087
-0.6740163 -0.25916174 -0.7952061 -0.29027763 -0.39129794 0.17736518 1.2963487 0.37038434
0.5694371 -0.7694984 -0.42045513 0.3858178 -0.86688155 0.15187761 -0.8815888 0.32204083
0.7093956 -0.873981 -1.091504 0.046173315 0.40967438 0.051485408 0.14715542 -0.6526656
-0.7759954 0.5972398 0.23528424 0.81863004 -1.4849905 -0.0729101 -0.732878 -1.136112
00000000: 3f1b edba f2df 89bf 7b0b fa3e 931b 99bf
00000010: 3a12 0f3f cf3a 64bd 8d85 133f b050 0bbf
00000020: e37e 30bf 6321 743e 1105 80bf 4995 d3be
00000030: c4a4 123f ef29 ddbd 8de8 a0bf e014 5dbf
00000040: 59ff 14bf 34eb 043f 9b33 f0be e4c0 9fbf
00000050: 5cc4 c8bf 2ae3 563d 6ff2 d3bf d8c2 853f
00000060: 558c 2cbf d9b0 84be a192 4bbf 459f 94be
00000070: 3458 c8be 389f 353e c1ee a53f 04a3 bd3e
00000080: a1c6 113f d9fd 44bf e545 d7be e989 c53e
00000090: f3eb 5dbf ce85 1b3e ceaf 61bf 89e2 a43e
000000a0: f39a 353f 38bd 5fbf 67b6 8bbf 3b20 3d3d
000000b0: d7c0 d13e 5de2 523d e9af 163e 1815 27bf
000000c0: a2a7 46bf b5e4 183f 5aee 703e bd91 513f
000000d0: 2b14 bebf e451 95bd e59d 3bbf 1e6c 91bf

l3.bias f4 [7]
-0.33034855 0.121537924 0.4929569 0.015011527 -0.16502783 -0.29074213 0.20053448
00000000: 7223 a9be e0e8 f83d d964 fc3e e8f2 753c
00000010: 0efd 28be 27dc 94be e958 4d3e
