helpdesk/data.pth (torch, 5527 bytes, 6 tensors)

l1.weight f4 [8, 61]
00000000: 2db6 ed3e 4812 d13d bcd6 923e 8024 ac3e
00000010: 5694 533f eacd b3be a129 05bf 43cc a33e
00000020: 9348 5ebf 0148 a03e 0691 c1be 6fe1 f53e
00000030: e601 c13e 1587 903e 5fb9 233f bc49 563e
00000040: c9a4 5ebf 6bb8 0f3f c856 5bbf 06bd d23e
00000050: 9afc 553f 617a 513e b82a 5b3f 6a0d 2e3f
00000060: 7886 a63d db75 5ebf 2e9c 9f3e 92e3 de3e
00000070: a1bd 3a3e 3a16 ac3e 5f0e d5be 1764 5ebf
00000080: 878f 46bf ea6b 6abe b9c7 953e 3900 8abf
00000090: 139a 84bc 946f 9dbe 67ff c83e 357e c23e
000000a0: 492f c43e 3e5b 983e 0a8d 55bf 7eae 483f
000000b0: 7be7 d5be 6a47 e33e b2fe 243f cacc a83e
000000c0: e42c 853e b46c 9a3e b354 2f3e dad5 8b3e
000000d0: cde3 71bd 4fdf 5bbf 044b 8d3e a797 80bc
000000e0: 8da6 833f 3ed6 453f fb40 18bf 2a5e b93e
000000f0: 6715 dc3e a9a5 e83e e9d5 b03e 21a8 8a3f
00000100: 1818 05bf 3e1f 433f 346f 8d3f f7b7 ad3f
00000110: fcba 2ebf 728d 843d b2a8 28bf d828 77bf
00000120: 6148 1fbf fef6 21bf 2e0e 07bf b140 023f
00000130: 924f 3c3f d505 77bf 35c2 0f3f cb93 243e
00000140: ff6c 2dbf 8e5c 3f3f c961 ac3e 8dae 7f3f
00000150: a2c5 5e3f cd1f 003f 28a4 743d b1db 453f
00000160: c6c0 fa3e 5e17 c03e bec8 f7be d2ca b3be
00000170: b2f0 76bf 9c43 72bf c1c2 84bc 6bd6 17bf
00000180: efc9 523f 7ddd 8e3f 87e0 76bf 7507 2dbf
00000190: 2d82 f5be ee11 9cbe dc88 263f 0c82 3e3e
000001a0: 482e 4b3f 7523 6bbe 7aad 2bbf c104 583f
000001b0: ff0d 9c3e 77ad b6be ce88 0ebf 2b9e 2f3f
000001c0: d4cc 13bf 4a4b 38be ddb5 3bbf 9f97 1abf
000001d0: d17f 523f 85b8 5d3f 6bf8 4c3f 98c5 27bf
000001e0: 4dad 0a3f 3ff0 23bf a593 573e dd84 b73d
000001f0: 9d72 aa3f a86e dfbe feb8 53bd 19c7 bf3f
00000200: 8aa1 933f fb14 d5be c83f 243f 432e b7be
00000210: a641 7d3e 09c9 b8be 3d88 afbe 62da b3be
00000220: 9614 9abd c2b9 263f 4c61 4a3f daee 043d
00000230: 2747 0b3f a9ec dabe c970 47bd b8c6 483e
00000240: 4998 b4be ddc7 4fbe b490 123e 6126 293f
00000250: 9078 fa3e 0c24 383f ac0f 373d 59a1 cabe
00000260: ce9c 6a3f 4231 453f 5183 e63e 7eb5 413f
00000270: d6f9 dbbe 24f2 bb3f ee14 323f d64f 903e
00000280: 0150 d0be eca2 dfbe 89c1 92be 0a04 303f
00000290: f542 063f 7e25 833f 576f 443f 58f8 a6be
000002a0: 1228 d03e 06cf 6f3d f5c1 16be 54c6 cebe
000002b0: 3921 143f 686a b5be c8d2 723e be87 883f
000002c0: 08d4 cebe c33a d83e 969c 833f 39d7 9bbd
000002d0: 5683 5b3f fd2b b83d 89ad a9be 1dce 88be
000002e0: 8306 74bd cbcd bbbe 7a43 0b3f 84b1 d83d
000002f0: 1815 60bf de25 60bf d981 a43e 427e 953e
00000300: e4ee f03e d750 2f3f a60a ac3e 19b2 e83e
00000310: da38 0f3f 2f9e e03d 49fa 23bf d47a 9b3f
00000320: f23b 2e3e 10f6 ba3e 9f15 ac3e 14d0 a33d
00000330: 46a9 81be 58c2 453e 31d9 173e 7a0d 553f
00000340: d37c a33e 5b10 2cbf cf16 3abf 8ee0 34be
00000350: 83bf 093f 866f 9e3e 0bf9 933f 0d1d 813f
00000360: 2c54 0fbe 6d97 c23e 96e0 3cbd 1939 01bf
00000370: d3ef 593f efc2 f83e e03b fd3e 5dc7 a73e
00000380: 4391 2cbf 1375 c13e 6d51 aebd 66ff 9e3e
00000390: cd88 d23e 9599 28bf 4831 b5be 8cab 8b3e
000003a0: 01a1 013f 22ca 3abf 77e8 eb3e 80c6 0d3f
000003b0: 2d83 553d a2c7 a53e 4f30 15bf 3eac c6be
000003c0: 6a1f 0ebf a514 d83e 422e 78be 7db3 de3e
000003d0: 54f1 b2be 05eb ccbd 52f1 90bf 7c44 c63e
000003e0: dd9d 983e f24f 68bf c0f0 67bf 85a0 0b3f
000003f0: 8064 f03d c3a2 e33e f3ee 40be b2ff dc3e
0.46428052 0.10208565 0.28679454 0.33621597 0.8264822 -0.35118037 -0.52016646 0.31991777
-0.8682949 0.31304935 -0.37805957 0.48023555 0.3769676 0.2822806 0.6395473 0.20926565
-0.8697019 0.56140774 -0.8567929 0.41159838 0.83588564 0.2045684 0.8561206 0.6798922
0.08131117 -0.86898583 0.31173843 0.43532997 0.182364 0.33610708 -0.41612527 -0.86871475
-0.77562755 -0.22892728 0.2925394 -1.0781318 -0.01618675 -0.3074919 0.39257357 0.37986913
0.38317326 0.29757112 -0.83418334 0.78391254 -0.41778168 0.44390422 0.64451134 0.32968742
0.2601081 0.3016106 0.17122154 0.27311593 -0.05905514 -0.85887617 0.27596295 -0.015697313
1.0285202 0.7728003 -0.5947415 0.36204654 0.4298508 0.4543889 0.345382 1.0832559
-0.5198989 0.76219547 1.1049562 1.3571767 -0.68254066 0.06472291 -0.6588241 -0.965467
-0.62219816 -0.63267505 -0.5275601 0.5087996 0.73558915 -0.96493274 0.5615571 0.16072004
-0.6774444 0.747506 0.33668354 0.9987572 0.87020314 0.50048524 0.059726864 0.7728835
0.489752 0.37517828 -0.48395342 -0.35115677 -0.9646102 -0.94634414 -0.016206147 -0.5931155
0.82339376 1.1161343 -0.9643635 -0.67589504 -0.4795088 -0.3048243 0.6505258 0.18604296
0.79367495 -0.22962745 -0.6706158 0.84382254 0.30479428 -0.35679218 -0.556775 0.6860072
-0.5773442 -0.1799747 -0.73324376 -0.60387605 0.8222628 0.8660968 0.80066556 -0.6553588
0.54170686 -0.6403846 0.21052416 0.089608885 1.3316227 -0.43639112 -0.051690094 1.4982635
1.1533673 -0.4161757 0.6415982 -0.35777482 0.24732074 -0.36090878 -0.3428363 -0.3512755
-0.07523458 0.65127194 0.79054713 0.03245435 0.54405445 -0.42758682 -0.048691545 0.19607055
-0.35272434 -0.20291086 0.14313012 0.66074187 0.48920107 0.71930003 0.04469268 -0.39576223
0.91645515 0.77028286 0.4502206 0.7566756 -0.42964047 1.468327 0.69563186 0.2818591
-0.40686038 -0.43678987 -0.2866328 0.68756163 0.5244592 1.0245817 0.7673239 -0.32611346
0.4065557 0.058547042 -0.14722426 -0.40385687 0.57863194 -0.35432744 0.23713219 1.0666425
-0.40396142 0.42232332 1.0282161 -0.0760941 0.8574728 0.08992765 -0.3314021 -0.26719752
-0.059576523 -0.36680445 0.54399836 0.105807334 -0.87532187 -0.8755778 0.32130316 0.2919789
0.4705726 0.68482727 0.33601874 0.45448378 0.55946124 0.10967671 -0.6405378 1.2146859
0.17015055 0.36515856 0.33610246 0.07998672 -0.25324458 0.19312418 0.14828946 0.8322369
0.3193117 -0.67212456 -0.72691053 -0.17663786 0.5380785 0.3094446 1.1560377 1.008699
-0.13996953 0.38006154 -0.04611262 -0.5047775 0.8513157 0.48586223 0.49459743 0.3276929
-0.6740915 0.37784633 -0.085116245 0.3105423 0.41119996 -0.6585935 -0.3538916 0.27279317
0.506363 -0.7296468 0.46075794 0.5538101 0.052127052 0.3237887 -0.5827684 -0.38803285
-0.55516684 0.4220325 -0.24236396 0.43496314 -0.34949744 -0.10005764 -1.1323645 0.38724124
0.2980794 -0.90746987 -0.9060173 0.5454181 0.11737919 0.44460115 -0.18841152 0.4316383

l1.bias f4 [8]
00000000: 5b65 5e3f a673 763f 9b23 d93e e88e 5f3f
00000010: 22bb 673f 8ca3 3c3f c59a 0f3f 968d 2f3f
0.86873406 0.96270216 0.42409977 0.8732743 0.90519917 0.7368705 0.56095535 0.6857542

l2.weight f4 [8, 8]
00000000: 3a06 0740 3392 c33f cecc 08bf e281 053e
00000010: a148 dc3f 784c c43f a4ad 0e40 3366 76bf
00000020: 003a be3c edef 27be faf2 adbe 5bce 17be
00000030: 3686 423e 7ef0 443e 20db 90bd ac90 9ebd
00000040: 8d2c d93c 4c8c fdbf c7a7 fbbc 6b2e d13f
00000050: 6731 7b3f cb31 983f 6cdb 09bf cf71 273f
00000060: b51b 183f 7ed3 e43f 7c8a af3f 33fb b7bf
00000070: 96f3 a2bf b5ae f6be 11c8 a6bf 8bce a73f
00000080: 49dd 553f 3416 6c3f e740 b63d 45b9 663f
00000090: 73c0 a6bf a0bc 803f c30b 26be e128 c4bf
000000a0: af37 7cbf a644 b43f 7b6e f23f d121 f73e
000000b0: 8056 763e dbbb c6bf 5cf3 aa3e 203a af3f
000000c0: 7613 10bf 6ca3 dabe 0f97 4a3e dc6d cb3f
000000d0: 6ea4 043c 146b ca3f d96c 013e 7c9e 9b3f
000000e0: 88f2 dd3f 0883 99bf 8aa4 84bf 73f5 873f
000000f0: 63ea ab3f 3c47 4a3f 183e 79bf 44fb 443e
2.109755 1.5278991 -0.5343751 0.13037828 1.7209665 1.5335836 2.2293482 -0.96249694
0.023221016 -0.16400118 -0.3397444 -0.14824812 0.1899651 0.19232365 -0.07073045 -0.07742438
0.026510501 -1.980844 -0.03071965 1.6342291 0.98122257 1.1890196 -0.53850436 0.65408033
0.5941728 1.7877042 1.3714137 -1.4373535 -1.2730587 -0.48180166 -1.3029805 1.3109907
0.8354078 0.9222138 0.08899098 0.9012645 -1.3027481 1.0057564 -0.16215424 -1.5324975
-0.98522466 1.408345 1.8939966 0.48267987 0.24056435 -1.5526079 0.33388793 1.3689613
-0.56279695 -0.42702806 0.19784187 1.5892901 0.008095844 1.5813928 0.12639178 1.215774
1.733964 -1.1993113 -1.0362713 1.062178 1.3430904 0.79014945 -0.9736037 0.19236475

l2.bias f4 [8]
00000000: a60d e53e 9045 85be 7fa0 113f bafb 133f
00000010: c04d 553e 1f07 4f3f fca7 943d 3c3c 2e3e
0.44736975 -0.26029634 0.5688552 0.5780598 0.2083044 0.8087024 0.07258603 0.17015165

l3.weight f4 [10, 8]
00000000: 0d3d 2cc0 816b 7abe 58d7 b4bf bade 3d3f
00000010: 5218 21c0 58a1 283f 8236 f03d 3042 a0bf
00000020: 3e9e 59bf e0d6 08be a5f3 75bf c453 5d3f
00000030: a00c 29bf d06e f33e 4885 c6bf df70 c8bf
00000040: 467b eebf 00fe 59bd c25b 203f 9880 7dbe
00000050: 958b ccbf d7ed 1d3f c3ed c33e 5b25 59c0
00000060: 6324 0ac0 884d b3bd 4d1b 3d3f dc57 0bc0
00000070: bbc1 d23e 74cd b63e 5df9 f43e 6202 48bd
00000080: dbc6 b73e f680 503e ad8b f5bd 9c49 1cc0
00000090: b56d fdbf dbf2 143d 047b 1e3f d5a3 debf
000000a0: f058 233f 084f 54be 96de 6bbe 4af8 11c0
000000b0: 04dc 073f 563b 06bf 883e 76bf 001c df3e
000000c0: 6eaf 943e 0929 963e 13bc 5d3f 7521 b2bf
000000d0: 7cf1 d0bf ddda b2bf 7012 033e 521a a03f
000000e0: f336 b6bd 061a 243e 422c 4abf 65d1 8b3e
000000f0: 9840 89bf 1337 373e 0cd6 ffbe 9607 8e3e
00000100: 4e75 7c3d adb6 853e 29f3 afbe 6995 983e
00000110: c836 6f3f 58f7 ebbf a5bd 30be 7753 45bf
00000120: 2e04 693f bd64 813e 36a2 7ebf 9331 8fbf
00000130: 8e5e 04c0 2408 1f3e 7fd0 39c0 9a29 b2bf
-2.6912262 -0.24455072 -1.4128218 0.7416798 -2.5171094 0.6587119 0.117291465 -1.2520199
-0.85007083 -0.13363218 -0.960749 0.8645594 -0.6603489 0.4754548 -1.5509424 -1.5659446
-1.863137 -0.05322075 0.6264001 -0.24756086 -1.5980097 0.6169104 0.38267335 -3.392905
-2.1584709 -0.08755022 0.7386978 -2.1772375 0.4116343 0.35703623 0.478465 -0.048830397
0.35893902 0.20361695 -0.11989532 -2.4419928 -1.9799105 0.036364418 0.61906457 -1.7393748
0.6380758 -0.20733273 -0.23034129 -2.2807794 0.5307009 -0.5243429 -0.96189165 0.4357605
0.29040092 0.29328182 0.86615103 -1.391646 -1.6323695 -1.3973042 0.12800002 1.2508032
-0.088971995 0.16025552 -0.7897378 0.27308193 -1.0722837 0.17892103 -0.49967992 0.27740163
0.061635308 0.26115933 -0.34365204 0.2980149 0.93442965 -1.8434858 -0.17259844 -0.7708048
0.91022 0.2527217 -0.99466264 -1.1187004 -2.0682712 0.15530449 -2.9033506 -1.3918946

l3.bias f4 [10]
00000000: a20a 14bf de43 473e f58e c83e 1a26 b8be
00000010: a6a9 a13d efe6 3c3d 3676 823e 1680 99be
00000020: cff6 4dbc f6fe a83e
-0.57828724 0.19459483 0.39171568 -0.3596657 0.07893686 0.046118673 0.25480813 -0.29980534
-0.012571051 0.3300702
