helpdesk/data.pth (torch, 4951 bytes, 6 tensors)

l1.weight f4 [8, 52]
000000 82 d4 d4 3e d6 a1 5c 3e 01 eb 97 3c 23 5c 9b be
       0.4156838 0.2154611 0.018544676 -0.30343732
000010 9d a3 10 bf 60 bb 6a be 82 3d af 3e 57 2f ff bc
       -0.56499654 -0.2292304 0.34226614 -0.031150503
000020 80 50 b2 ba 1b d4 31 be 1c 85 ee bd 7f 56 93 be
       -0.0013604313 -0.17366068 -0.11646482 -0.2877693
000030 cf 8d c8 be 5d 9d 09 be 9d 54 a2 bd 7f 5f 8c be
       -0.3917069 -0.13438936 -0.07926295 -0.27416608
000040 58 84 a3 3d 56 b1 2e be a0 d5 0f bf d3 98 fa 3e
       0.07984227 -0.17059836 -0.5618534 0.4894472
000050 7f 2b f6 be b1 d2 0f bf 8a 22 a5 be 6b b4 62 be
       -0.4808006 -0.56180865 -0.32252914 -0.22139136
000060 3a 82 07 be 36 ba 0b be 6d a9 2e be 0e e0 b2 bd
       -0.13233271 -0.13645253 -0.17056818 -0.08734141
000070 e6 ac 88 bc 67 e3 31 be ee 77 6e 3e ca 77 3d be
       -0.016684007 -0.17371903 0.23287937 -0.18502727
000080 7e 6b 0a 3f a2 a2 5b bd f4 0a 6e be 13 95 9b bd
       0.5407027 -0.053621896 -0.23246366 -0.07596793
000090 fb 10 f0 bc 82 8c a9 bd 06 ad 8c bd 02 f6 25 3e
       -0.029304972 -0.08278753 -0.06868939 0.16207126
0000a0 f4 3b cb 3e fe e5 cf bd 8f 15 32 3f 3b 9a cc 3e
       0.39694178 -0.101512894 0.69564146 0.39961419
0000b0 cb 34 d4 bd 79 42 17 bc f5 d0 2b be 51 bd 4f be
       -0.10361632 -0.009232157 -0.1677893 -0.20287062
0000c0 06 d1 c7 3e f4 f9 e3 be 0f 6d 58 be a0 17 e4 3e
       0.3902666 -0.44526637 -0.21135353 0.44549274
0000d0 d5 f8 13 be ea fc 3a 3d 70 da a4 3e f4 d3 f6 bd
       -0.1445039 0.045651354 0.32197905 -0.120521456
0000e0 5a 13 79 be 21 52 a0 3e 84 89 1c 3f e1 d5 10 3f
       -0.24323788 0.3131266 0.6114733 0.56576353
0000f0 7c 9b 01 3f d8 3c b4 3e f9 00 97 3e cc 1f a6 be
       0.50627875 0.3520267 0.2949293 -0.32446134
000100 54 6e 3c 3f cf ad ed bd 73 1b a2 3e c2 6c 20 be
       0.7360585 -0.11605417 0.31661567 -0.15666488
000110 68 2a 3f 3f 76 93 0c 3f 95 98 f6 be aa b2 6d be
       0.7467408 0.5491251 -0.48163286 -0.23212686
000120 f7 9f f6 be 2a 95 f6 be e9 30 de be 46 08 0d 3f
       -0.48168918 -0.48160678 -0.4339669 0.5509075
000130 08 81 7d be d2 ad bc 3e 1c c3 d0 3e c3 c8 c7 3e
       -0.24756253 0.36851364 0.40773857 0.39020357
000140 1e c3 88 3e 9a 6b 01 be 17 14 16 3b da 92 d2 3e
       0.26711363 -0.12638703 0.0022900158 0.41127664
000150 ea fb 4c 3f fd 8d c5 3e bc 78 74 3e 6a 5e c6 3e
       0.8007189 0.3858489 0.23874182 0.38743907
000160 ae b6 05 3f 25 84 a4 3e 9b f7 12 3f 7d 43 f3 3e
       0.5223187 0.32132068 0.57409066 0.47512427
000170 c2 0c 11 3f 22 92 7c be 90 8a 28 bf d0 1d d7 bd
       0.5666009 -0.2466512 -0.6583643 -0.10503733
000180 ac c9 e7 bd a3 93 d5 3e 93 04 ac bd 91 f1 8c be
       -0.11317763 0.417142 -0.0839931 -0.2752805
000190 67 df fe 3e 42 79 1a 3f a3 a9 1e 3f 41 ff 50 3e
       0.49779817 0.60341275 0.61977595 0.20409872
0001a0 d9 b9 75 be 19 b8 06 3e 53 40 27 3e 8c 64 e7 3e
       -0.23996677 0.13156165 0.16333131 0.451939
0001b0 45 b8 e1 3e 74 72 a4 3e be 77 5e 3f a0 f7 d2 3e
       0.440859 0.3211857 0.8690146 0.41204548
0001c0 b0 83 22 3e fa cc e6 3e 51 09 45 3e d6 67 bd 3e
       0.15870547 0.4507826 0.19241835 0.36993283
0001d0 44 97 6d 3f 1d b1 9a bd 92 03 4b 3e aa ff e9 3e
       0.9280894 -0.07553313 0.1982558 0.4570287
0001e0 a0 ca 42 3f 4f 88 1a 3f 8f d4 1d 3f 6b 2b 1d be
       0.7609043 0.6036424 0.61652464 -0.15348594
0001f0 16 a2 1d 3f 06 5e ff 3e d3 af f9 3e 04 b6 84 3e
       0.6157545 0.49876422 0.48766956 0.25920117
000200 72 50 ad 3e aa 2c 00 3f a8 bc ea 3e d8 c7 da 3e
       0.33850437 0.5006815 0.45847058 0.42730594
000210 01 87 03 3f ce 32 04 bd cd 35 a6 3e a3 36 48 3e
       0.51377875 -0.032275014 0.32462922 0.19552092
000220 7f c8 a8 be d4 5f c7 3e 79 c3 d9 3e 4d 02 81 3e
       -0.32965466 0.389403 0.42531946 0.25197068
000230 19 a2 81 3e 8a 03 a4 3e b1 de 41 3e 87 bd e1 3e
       0.25318983 0.3203395 0.18932606 0.4408991
000240 03 16 03 bf 02 9b 8a 3c 2d 06 04 bf 61 4b dc bd
       -0.5120546 0.016919617 -0.51571923 -0.10756565
000250 25 1c 91 3e 31 1e 5a 3e ae 71 4a 3d 4f 2a fa 3d
       0.28341785 0.2130058 0.04942482 0.12215101
000260 c7 15 03 bf 10 bb 1c 3f 23 6e 34 3e f0 7c fa 3e
       -0.51205105 0.61222935 0.17620139 0.48923445
000270 1c 9c ee 3e ed 15 a7 3e 16 2b 9c be df 11 c2 bd
       0.46603477 0.32633916 -0.30501622 -0.09476065
000280 84 dd ae be d5 7b 64 be 58 87 10 3f 3e 3a 36 be
       -0.34153378 -0.22312863 0.5645652 -0.17795655
000290 02 1a 8c bc 2c 96 12 bd ba 73 74 be c3 66 48 be
       -0.017102245 -0.035787746 -0.23872271 -0.1957045
0002a0 bb 5a 6b 3d f0 7d d9 bd 29 a2 12 be f7 dc 3f be
       0.057459574 -0.10619724 -0.14319672 -0.18736635
0002b0 df 6e 3d 3f 37 73 b9 3e 28 fc ed be cd 20 f0 3e
       0.739973 0.36220714 -0.46481442 0.46900025
0002c0 8d 97 f7 be 3d 60 e5 be 39 be e1 be d9 e4 37 bd
       -0.48357812 -0.44799986 -0.4409044 -0.04489598
0002d0 d0 26 56 bd e1 9e 7f 3e ab f6 85 3e 43 08 f6 3e
       -0.05228311 0.24962951 0.26164755 0.48053178
0002e0 2c 06 8c 3e 17 9d 71 3d 7a 04 c0 3e 2c 8a b5 be
       0.2734846 0.058987703 0.37503415 -0.3545698
0002f0 9a 20 98 be 4d a9 74 3e 84 3c 9e bb 61 9b d7 bd
       -0.29712373 0.23892708 -0.0048289914 -0.10527683
000300 66 cc 8d 3c b9 a1 33 bd 96 72 4c be a1 a9 84 3e
       0.017309379 -0.043855403 -0.19965586 0.25910667
000310 ec aa 41 be 16 22 aa bd 9a 0f 23 3f aa 09 74 3e
       -0.18912858 -0.083072826 0.6369568 0.23831812
000320 35 49 6e be 78 0c d8 be 7c ab 8a 3d 07 1b 2d bc
       -0.23270114 -0.42197013 0.06770989 -0.010565526
000330 7b 2a 37 be 51 18 22 3f a3 42 50 be ee c9 d4 3e
       -0.17887299 0.63318354 -0.2033792 0.4156031
000340 31 69 86 be a9 e8 02 be bb eb e2 3e 39 4b 08 be
       -0.2625213 -0.12784065 0.44320473 -0.13309945
000350 ea d1 6d be 4c b3 8e 3e b5 ab 30 3f 35 b3 fe 3e
       -0.23224607 0.27871168 0.69012004 0.497461
000360 a9 b9 81 3e ff 7e 29 3e ac 6b aa 3e f8 28 c1 bd
       0.2533696 0.16552351 0.33285272 -0.09431642
000370 83 eb 41 3f 3b b4 05 3d d9 0b c2 3d 41 f6 96 be
       0.7574999 0.032642584 0.09474916 -0.29484752
000380 06 30 0c 3f cb 16 12 3f c9 f4 c0 be e8 05 81 bd
       0.5476078 0.5706603 -0.37686756 -0.06299955
000390 bb 42 c2 be 37 47 c3 be 6d 2e ad be 23 da b0 3e
       -0.37941536 -0.3814027 -0.33824483 0.34541425
0003a0 f5 41 02 be 15 05 ba 3e 0f 5f 04 3f 86 8b 79 3e
       -0.12720473 0.36332002 0.5170755 0.2436963
0003b0 4a f8 c9 3e bd 98 49 3e 80 6a 99 bb 05 72 9f 3e
       0.39447242 0.19687171 -0.0046818852 0.31141677
0003c0 15 a1 0e 3f e9 8c 7f 3e a7 c2 35 3e 7d 89 96 3e
       0.5571454 0.24956097 0.17750035 0.2940177
0003d0 3b 4f 0a 3f 19 5b a5 3e 73 17 f1 3e 44 05 5a 3e
       0.54027146 0.32296064 0.47088203 0.21291071
0003e0 4e bc 12 3f 4a 85 9f 3d 7c a3 3d bf be 13 9c bd
       0.5731858 0.07789095 -0.7407758 -0.07620953
0003f0 17 34 fc bd 44 9f bd 3e ef e6 9d bc 83 ba 63 3e
       -0.12314623 0.37035573 -0.019275157 0.22239117

l1.bias f4 [8]
000000 bd d4 0f 3f 47 9b f6 3e 8f 7b 57 3f 15 ca 1b 3f
       0.5618399 0.48165342 0.8417291 0.6085523
000010 4c ad cd 3e 69 8d 29 3f 50 4c 8b 3e 96 08 4b 3f
       0.40171278 0.662314 0.2720666 0.79309976

l2.weight f4 [8, 8]
000000 96 1c 9c 3f d2 65 e9 be c9 48 34 3f 4e 64 e2 bc
       1.2196224 -0.45585495 0.7042356 -0.02763572
000010 1c 1e 3b bf 17 6f 6b 3f 02 c4 9b bf 4a 69 44 3f
       -0.7309282 0.91966385 -1.2169192 0.7672316
000020 bd b0 24 bf 4d 59 0d 3f 95 da 90 3f 18 7c 73 be
       -0.6433218 0.5521439 1.1316706 -0.23777807
000030 47 6f c6 3e 66 46 b1 be 5e 01 5b 3e 23 a2 b8 3e
       0.38756773 -0.34624022 0.2138724 0.360612
000040 b5 05 14 3f 60 3c 62 bf 1b f8 45 3f 81 29 1f 3f
       0.5782121 -0.88373375 0.77331704 0.62172705
000050 0f 9d 63 bf f2 29 9d 3e e5 91 01 be d4 67 76 3f
       -0.8891153 0.30696064 -0.1265331 0.9625218
000060 af cc 13 3f 36 c3 e8 3e a0 83 0b bf b1 68 17 bf
       0.577342 0.45461434 -0.5449772 -0.5914412
000070 9d 57 92 3e 2b b8 8e be 5e 04 7c 3f 59 ab 80 3f
       0.2858247 -0.27874884 0.98444164 1.0052291
000080 6f 2d 12 bf cf 7f 7a 3f 58 52 a1 3f 45 bf 35 3f
       -0.57100576 0.9785127 1.2603254 0.7099498
000090 84 9a 71 3f 94 a7 a9 3c 20 87 7d bf 00 97 58 be
       0.943764 0.02070979 -0.9903431 -0.21151352
0000a0 bc 1e ae 3f fb a4 63 3d 16 62 1c bf 82 57 58 3f
       1.3603129 0.05557726 -0.6108717 0.84508526
0000b0 24 4c ba bd 73 46 96 3f a0 99 d7 3e 91 72 cc 3d
       -0.09096554 1.1740249 0.42109394 0.09982789
0000c0 70 40 24 3f b4 40 38 3f e1 d4 9d be f7 de 46 bf
       0.64160824 0.7197373 -0.30826476 -0.7768397
0000d0 91 e5 b3 3e 23 18 81 3f ec aa 5f 3f 2f d7 ca 3e
       0.35136083 1.0085491 0.8737018 0.39617297
0000e0 e7 a6 3b bf 93 0d 23 bf 21 65 e1 3e 96 1b 61 bf
       -0.7330155 -0.6369259 0.44022468 -0.8793272
0000f0 0e d2 bb bd 3e f8 1d 3e 55 3c 18 3e 64 25 85 3f
       -0.09170924 0.15426728 0.14866765 1.0402036

l2.bias f4 [8]
000000 8a 42 34 3f b2 24 09 3f 65 05 19 3f da ff d2 3e
       0.7041403 0.5357162 0.59773856 0.41210824
000010 ea 64 07 3f 8b 2d ed 3e bd b0 c4 bd 63 f9 47 3f
       0.5288836 0.4632381 -0.09604023 0.7811491

l3.weight f4 [7, 8]
000000 78 bb 32 3e 8f 71 97 3d 45 69 a2 3c 87 5a 80 bf
       0.17454326 0.073947065 0.019825587 -1.0027627
000010 f5 57 8d 3e 17 c5 e5 3e 57 6a e5 bd d1 89 76 bf
       0.27606168 0.4487693 -0.11201923 -0.9630404
000020 18 df a4 3e 54 87 94 3e 7a 56 4b 3f 2d e2 54 be
       0.32201457 0.29009497 0.7942883 -0.20789404
000030 4c 89 6d be 90 0c 97 bf ed b1 91 bf e1 0d 71 3f
       -0.23196906 -1.1800709 -1.1382424 0.941618
000040 52 c4 7a bf 93 a4 b8 3e e7 64 ee be 19 29 27 bf
       -0.9795581 0.3606306 -0.46561357 -0.65297085
000050 eb 68 3c 3f 5f 75 89 bf c5 d9 8b bf d7 ab d4 be
       0.7359759 -1.0738944 -1.0925833 -0.41537353
000060 4b 40 43 bf 38 82 17 3f 0b a4 48 bf 3d 80 b5 3e
       -0.7626998 0.59183073 -0.7837531 0.354494
000070 5d 6e b1 bd 3f ab 7a bf 52 84 c9 3e 3c 61 f1 be
       -0.08663628 -0.9791755 0.39358765 -0.47144496
000080 25 cc fa be 6a b0 cc be 21 df 89 bf a0 f4 ea 3e
       -0.48983875 -0.39978343 -1.0771219 0.4588976
000090 ac a3 00 bf 78 77 04 3f 58 ad 09 3f 06 bc 00 bf
       -0.50249743 0.51744795 0.53780127 -0.502869
0000a0 7c 22 a9 3e 9b 79 92 bf 7c c9 54 3f ae 10 6b be
       0.33034122 -1.1443361 0.8311994 -0.22955582
0000b0 bf e3 87 bf f7 28 5b 3f a7 a3 0c bf 8f f4 1c bf
       -1.0616378 0.8560938 -0.54937214 -0.61310667
0000c0 64 9c 24 be a8 d8 b1 be c8 1e a1 3d 04 ed 17 3d
       -0.16075283 -0.34735608 0.07867199 0.03709127
0000d0 a1 4e 90 bf 91 de 21 bd e9 73 61 3e 27 a0 30 3f
       -1.1273996 -0.039518896 0.22016872 0.68994373

l3.bias f4 [7]
000000 eb c0 13 3e 15 81 5f bd c5 5a 6a 3e 36 2b 58 3e
       0.14429061 -0.05456646 0.22886188 0.21110234
000010 c7 88 aa bc 5f cb 19 3e b9 b2 ef bd
       -0.020817174 0.15018986 -0.117040105
