bot_core/data.pth (torch, 5503 bytes, 6 tensors)

l1.weight f4 [8, 61]
0.32406393 0.19664925 0.7246107 0.27019835 -0.6080936 0.9567102 0.8278061 0.25699934
0.6621378 0.26834393 -0.25512737 0.44960868 0.43609428 0.44638756 -0.17082411 -0.2606979
-0.61155224 -0.3609812 0.6155498 0.2780492 -0.60622776 0.33501667 -0.5409762 -0.59690154
-0.60054123 0.6948341 -0.21802466 -0.3241722 0.24601263 0.41681534 -0.32969934 -0.6090797
-0.034555938 -0.228812 0.4123476 -0.5378079 0.27807513 0.045714732 0.23219998 0.3482372
0.1845625 -0.34207162 0.70012283 0.64961135 -0.27914098 0.42377532 0.7344098 0.27170599
0.15704821 0.34656352 -0.23220004 0.39805445 -0.02263849 -0.6089476 0.37758324 0.035491623
0.06843297 0.18959863 -0.38074246 0.2822461 0.27393782 0.50759983 0.3560911 0.8258232
0.4203483 -0.52886516 1.0336198 0.93124825 0.2777378 0.9379718 0.30801457 0.55991584
0.32269517 0.18592367 0.24347098 -0.25946805 -0.20008598 -0.52935964 -0.26926744 0.9904782
0.18225868 -0.52867323 0.5674861 -0.5287082 -0.5285885 -0.487218 0.9096186 -0.18526983
-0.10535076 0.23038146 0.31975183 -0.33456433 -0.5293253 -0.09723253 -0.08630644 0.30435923
0.04058801 0.06073605 -1.0878093 0.23093395 0.26312238 0.33335423 -0.1429632 0.8663098
-0.5308515 -0.19462731 0.22560188 1.1083819 0.44484523 0.3975151 0.3743276 -0.073932655
0.39760342 -0.05986258 -0.52895576 0.30921832 0.12122317 -0.12179722 0.21370086 -0.44289398
0.62856346 0.28039217 0.38955605 0.14738435 0.2712862 -0.5635036 0.6520434 -0.6923808
-0.70187265 -0.5683783 0.8779783 -0.576593 -0.70621395 -0.556684 -0.58635944 -0.57371265
0.6522453 0.89738834 -0.70062304 0.4932287 0.93370783 -0.6146858 0.78515136 0.3842095
0.6194405 0.85341907 0.326775 0.9298888 1.0644099 0.77323705 0.2619411 -0.5587405
0.6827429 -0.7020011 -1.0010955 0.7536134 -0.5706085 1.5313475 -0.9355404 -0.7042727
-0.5686239 -0.55261356 -0.24746199 0.7732749 0.81605506 -0.53126997 0.68432647 -0.59432185
0.75920284 0.21821105 -0.36036268 -0.6179336 0.9203598 -0.5573922 -0.0076898783 1.0476356
-0.5622603 -0.7091673 -0.9696791 0.51953024 0.5484449 0.32589138 -0.56068766 -0.26460534
-0.07799952 -0.06010032 0.5641234 -0.8102403 0.53402257 0.6339388 0.6245939 0.61850023
0.6079596 -0.408749 0.578121 0.43827206 0.4196893 -0.5337721 0.27595198 -0.65277475
-0.48948717 0.62463474 0.454759 -0.8291702 -0.28911647 -0.8399326 -0.847188 -0.9273241
0.63652194 0.34167936 0.16557944 -0.112592466 0.5271188 0.59386605 -0.7342901 0.44591
0.41546768 0.53916264 -0.9648672 0.97508913 0.13590269 0.58739924 0.6871575 0.3653119
0.16598284 0.55016553 1.040427 0.5737835 0.4723153 -1.004031 -0.46957615 0.4681143
0.43603408 0.23857285 0.6213374 -0.008563263 0.74634767 0.5183517 0.889332 0.89921945
0.09530638 0.68315446 -0.109012954 0.59855115 0.25416324 0.021952856 -0.36111617 0.37037867
0.96555066 -0.4933033 -0.40909705 0.4319322 -0.45164877 0.36114356 1.133886 0.3881437
00000000: b5eb a53e 6c5e 493e 1680 393f 7057 8a3e
00000010: 06ac 1bbf f6ea 743f 1aeb 533f 6b95 833e
00000020: dd81 293f 6064 893e 0ea0 82be 1c33 e63e
00000030: c047 df3e e98c e43e 84ec 2ebe 327a 85be
00000040: b08e 1cbf 87d2 b8be ac94 1d3f 775c 8e3e
00000050: be31 1bbf 4e87 ab3e 6b7d 0abf 8ace 18bf
00000060: 12bd 19bf a6e0 313f db41 5fbe e6f9 a5be
00000070: bcea 7b3e d268 d53e 5ace a8be a6ec 1bbf
00000080: 878a 0dbd b14d 6abe 3a1f d33e c7ad 09bf
00000090: dd5f 8e3e 5f3f 3b3d d5c5 6d3e 254c b23e
000000a0: f4fd 3c3e 0324 afbe 403b 333f ee4c 263f
000000b0: 91eb 8ebe 14f9 d83e 4802 3c3f 0c1d 8b3e
000000c0: 3fd1 203e c670 b13e d9c5 6dbe cbcd cb3e
000000d0: 5b74 b9bc fde3 1bbf 9752 c13e aa5f 113d
000000e0: 9626 8c3d 2526 423e adf0 c2be 9082 903e
000000f0: 9441 8c3e 10f2 013f 9351 b63e 2669 533f
00000100: e437 d73e b563 07bf a74d 843f 4966 6e3f
00000110: a633 8e3e eb1e 703f 16b4 9d3e a556 0f3f
00000120: 4d38 a53e c662 3e3e 7550 793e ffd8 84be
00000130: 57e3 4cbe 1d84 07bf 6cdd 89be fb8f 7d3f
00000140: 05a2 3a3e 2157 07bf c546 113f 6c59 07bf
00000150: 9351 07bf a374 f9be c4dc 683f 60b7 3dbe
00000160: 24c2 d7bd 1ee9 6b3e 83b6 a33e 044c abbe
00000170: dd81 07bf d921 c7bd 6ec1 b0bd f9d4 9b3e
00000180: 9d3f 263d 5dc6 783d 563d 8bbf f379 6c3e
00000190: fab7 863e 68ad aa3e f264 12be 7bc6 5d3f
000001a0: e2e5 07bf 624c 47be 2e04 673e 75df 8d3f
000001b0: c1c2 e33e 1987 cb3e dea7 bf3e 016a 97bd
000001c0: ad92 cb3e 7732 75bd a569 07bf dd51 9e3e
000001d0: da43 f83d d270 f9bd 66d4 5a3e 00c3 e2be
000001e0: 89e9 203f 908f 8f3e e473 c73e eceb 163e
000001f0: 06e6 8a3e c641 10bf 51ec 263f de3f 31bf
00000200: edad 33bf 3e81 11bf 30c3 603f 999b 13bf
00000210: 70ca 34bf d882 0ebf a71b 16bf d5de 12bf
00000220: 8cf9 263f 3ebb 653f 085c 33bf 7988 fc3e
00000230: 7a07 6f3f 0c5c 1dbf aeff 483f 1cb7 c43e
00000240: a793 1e3f ac79 5a3f 0e4f a73e 310d 6e3f
00000250: 953e 883f ddf2 453f 251d 863e 9e09 0fbf
00000260: 3dc8 2e3f 58b6 33bf e623 80bf cfec 403f
00000270: 6613 12bf 3203 c43f 937f 6fbf 374b 34bf
00000280: 5691 11bf 1578 0dbf ad66 7dbe 58f5 453f
00000290: fce8 503f 4f01 08bf 0530 2f3f 7a25 18bf
000002a0: 1e5b 423f b872 5f3e 7581 b8be e530 1ebf
000002b0: b39c 6b3f 41b1 0ebf 60fb fbbb ec18 863f
000002c0: 4bf0 0fbf fd8b 35bf e43c 78bf efff 043f
000002d0: e366 0c3f 3cdb a63e 3a89 0fbf 5a7a 87be
000002e0: 36be 9fbd c12b 76bd 646a 103f e96b 4fbf
000002f0: b4b5 083f d049 223f 63e5 1f3f 0856 1e3f
00000300: 3ea3 1b3f 8d47 d1be bdff 133f 3265 e03e
00000310: 84e1 d63e 4aa5 08bf 9449 8d3e 3f1c 27bf
00000320: 109e fabe 10e8 1f3f 2cd6 e83e 8044 54bf
00000330: 1307 94be d305 57bf 50e1 58bf 1d65 6dbf
00000340: 1af3 223f 99f0 ae3e a88d 293e e196 e6bd
00000350: 42f1 063f 9b07 183f 70fa 3bbf 514e e43e
00000360: 2eb8 d43e 9006 0a3f 8901 77bf 719f 793f
00000370: 132a 0b3e cc5f 163f 8ee9 2f3f 290a bb3e
00000380: 68f7 293e a6d7 0c3f b62c 853f 7ae3 123f
00000390: 50d3 f13e 1684 80bf 496c f0be adac ef3e
000003a0: dc3f df3e 714c 743e f80f 1f3f ee4c 0cbc
000003b0: a410 3f3f b2b2 043f 43ab 633f 3f33 663f
000003c0: fe2f c33d 36e3 2e3f 2f42 dfbd a63a 193f
000003d0: af21 823e 7ad6 b33c 38e4 b8be 46a2 bd3e
000003e0: 542e 773f 4092 fcbe 2b75 d1be 3826 dd3e
000003f0: 823e e7be cfe7 b83e 2d23 913f c5ba c63e

l1.bias f4 [8]
0.60720474 0.5271908 0.69831663 1.0224584 0.5564199 0.46714014 0.650701 0.8206843
00000000: c571 1b3f faf5 063f e1c4 323f ebdf 823f
00000010: 8971 0e3f fe2c ef3e 5794 263f 5e18 523f

l2.weight f4 [8, 8]
0.25808313 1.1544241 2.0824802 -0.957633 0.012555235 -0.37761196 0.55331033 0.8826482
-0.8474434 -0.8108653 1.9716735 -0.24715982 0.5134883 1.6039929 1.1659375 0.6562745
0.98671263 1.1212385 -1.8265913 -0.142525 1.6423252 0.21579224 -1.5488764 0.77604425
-0.23770338 0.28464147 0.82677555 0.9333275 -0.040405653 0.25036296 -1.0305673 0.5535829
-0.09965658 -0.41441503 -0.18185773 0.4289409 1.7004564 1.8622458 -0.8845724 1.0657976
0.20771137 -0.032791227 -0.101656854 -0.34101668 -0.23545526 0.28454188 -0.13475662 -0.11741847
1.3828923 1.2053571 -1.2647824 2.6891105 -0.79853433 -0.16048229 1.4830157 -0.7452662
1.6605232 1.9277512 0.5131233 0.947374 -0.10251343 -1.1402501 -1.1343267 1.3438178
00000000: 7923 843e 2bc4 933f 5b47 0540 7027 75bf
00000010: 79b4 4d3c 5b56 c1be bfa5 0d3f 3cf5 613f
00000020: 0df2 58bf de94 4fbf cc5f fc3f 7717 7dbe
00000030: f873 033f a44f cd3f 713d 953f 9b01 283f
00000040: 3399 7c3f be84 8f3f becd e9bf 13f2 11be
00000050: b637 d23f a4f8 5c3e 9541 c6bf d6aa 463f
00000060: 8468 73be 87bc 913e 90a7 533f 8dee 6e3f
00000070: 6680 25bd 932f 803e a1e9 83bf 9cb7 0d3f
00000080: c018 ccbd 352e d4be ea38 3abe 249e db3e
00000090: 8ea8 d93f 125e ee3f 5673 62bf 0e6c 883f
000000a0: 4ab2 543e 1850 06bd 7831 d0bd bd99 aebe
000000b0: 2f1b 71be 79af 913e a4fd 09be 1879 f0bd
000000c0: 9d02 b13f 2449 9a3f 64e4 a1bf 631a 2c40
000000d0: bf6c 4cbf 7855 24be 75d3 bd3f c4c9 3ebf
000000e0: 068c d43f 8dc0 f63f 0c5c 033f 1a87 723f
000000f0: 90f2 d1bd b7f3 91bf 9e31 91bf 3902 ac3f

l2.bias f4 [8]
0.22772191 0.65763193 0.45575422 -0.5164573 0.54898673 -0.3105819 1.0262046 0.6598215
00000000: ef2f 693e 915a 283f 9e58 e93e 8c36 04bf
00000010: 658a 0c3f 9704 9fbe ac5a 833f 10ea 283f

l3.weight f4 [10, 8]
0.9938388 0.69915235 -0.767541 -0.9570918 -1.9640675 0.16199628 -1.0901523 0.19180048
-0.48104584 -1.5428214 0.16076314 -1.5352435 -1.5757251 0.33091328 0.8521491 0.2345829
-0.346031 0.7933483 -1.0132986 1.4205501 -0.70314246 0.0365974 0.09370647 -1.9344285
-1.8380104 0.47002628 0.8067791 -0.33391678 0.9961522 -0.18733759 -1.9011306 -1.4721447
0.66231984 -0.8283742 -1.4024744 1.2950718 -1.3179655 0.19049844 -0.03510587 0.43793532
0.46971366 1.0322117 -0.8308614 -2.2933304 0.3476357 -0.3043815 -1.8232372 -1.5308306
-1.2531811 -1.2436707 0.7324069 0.28201222 0.58948964 0.2892712 -0.26718366 0.805252
-1.6772151 0.22281174 -1.2851443 -1.4922208 -0.65510666 0.33142546 0.7431042 -0.2311924
0.91003484 -1.0756265 0.5457313 -0.06233907 -0.29291645 0.15474048 -1.7017385 0.64812565
-0.063854925 0.17447172 -0.84415805 1.422413 0.39060602 -0.15291959 -1.2212603 0.08989006
00000000: 386c 7e3f a6fb 323f 917d 44bf f803 75bf
00000010: 9066 fbbf 5ae2 253e 1c8a 8bbf 5867 443e
00000020: a44b f6be 2c7b c5bf 189f 243e dc82 c4bf
00000030: 5cb1 c9bf 776d a93e 7226 5a3f 8036 703e
00000040: fa2a b1be e018 4b3f c5b3 81bf 96d4 b53f
00000050: 2501 34bf 28e7 153d 2ee9 bf3d 5a9b f7bf
00000060: ed43 ebbf 49a7 f03e 1389 4e3f 24f7 aabe
00000070: d503 7f3f 6dd5 3fbe 3f58 f3bf 3d6f bcbf
00000080: cb8d 293f 5510 54bf 4884 b3bf eac4 a53f
00000090: 18b3 a8bf 0612 433e 2ccb 0fbd 0f39 e03e
000000a0: 4f7e f03e 831f 843f 55b3 54bf edc5 12c0
000000b0: 4efd b13e e4d7 9bbe d65f e9bf 42f2 c3bf
000000c0: 3d68 a0bf 9a30 9fbf 057f 3b3f e863 903e
000000d0: cbe8 163f 5b1b 943e 4ccc 88be ff24 4e3f
000000e0: fcae d6bf c328 643e 9c7f a4bf 1701 bfbf
000000f0: 12b5 27bf 99b0 a93e 143c 3e3f b3bd 6cbe
00000100: 0bf8 683f 21ae 89bf 0cb5 0b3f 4157 7fbd
00000110: 25f9 95be 4a74 1e3e 91d2 d9bf 90eb 253f
00000120: 5fc6 82bd b7a8 323e be1a 58bf a111 b63f
00000130: 83fd c73e f496 1cbe 4252 9cbf 4818 b83d

l3.bias f4 [10]
-0.13558948 -0.047309767 0.053204395 -0.17435166 -0.3513485 0.10935669 -0.09570775 -0.06563036
-0.63541937 -0.025422331
00000000: f8d7 0abe e3c7 41bd daec 593d 3e89 32be
00000010: f3e3 b3be 66f6 df3d 6d02 c4bd 3669 86bd
00000020: d8aa 22bf 7e42 d0bc
